…
torch.Size([1, 128, 133, 175])
torch.Size([1, 256, 133, 175])
torch.Size([1, 256, 133, 175])
torch.Size([1, 256, 133, 175])
torch.Size([1, 256, 67, 88])
torch.Size([1, 512, 67, 88])
torch.Size([1, 512, 67, 88])
torch.Size([1, 512, 67, 88])
torch.Size([1, 512, 34, 44])
torch.Size([1, 512, 34, 44])
torch.Size([1, 512, 34, 44])
torch.Size([1, 512, 34, 44])
torch.Size([1, 512, 17, 22])
torch.Size([1, 4096, 11, 16])
torch.Size([1, 4096, 11, 16])
torch.Size([1, 4096, 11, 16])
torch.Size([1, 4096, 11, 16])
torch.Size([1, 21, 11, 16])
torch.Size([1, 21, 384, 544])
torch.Size([1, 21, 333, 500])
0 - FCN32s(
  (conv1_1): Conv2d(3, 64, kernel_size=(3, 3), stride=(1, 1), padding=(100, 100))
  (relu1_1): ReLU(inplace)
  (conv1_2): Conv2d(64, 64, kernel_size=(3, 3), stride=(1, 1), padding=(1, 1))
  (relu1_2): ReLU(inplace)
  (pool1): MaxPool2d(kernel_size=2, stride=2, padding=0, dilation=1, ceil_mode=True)
  (conv2_1): Conv2d(64, 128, kernel_size=(3, 3), stride=(1, 1), padding=(1, 1))
  (relu2_1): ReLU(inplace)
  (conv2_2): Conv2d(128, 128, kernel_size=(3, 3), stride=(1, 1), padding=(1, 1))
  (relu2_2): ReLU(inplace)
  (pool2): MaxPool2d(kernel_size=2, stride=2, padding=0, dilation=1, ceil_mode=True)
  (conv3_1): Conv2d(128, 256, kernel_size=(3, 3), stride=(1, 1), padding=(1, 1))
  (relu3_1): ReLU(inplace)
  (conv3_2): Conv2d(256, 256, kernel_size=(3, 3), stride=(1, 1), padding=(1, 1))
  (relu3_2): ReLU(inplace)
  (conv3_3): Conv2d(256, 256, kernel_size=(3, 3), stride=(1, 1), padding=(1, 1))
  (relu3_3): ReLU(inplace)
  (pool3): MaxPool2d(kernel_size=2, stride=2, padding=0, dilation=1, ceil_mode=True)
  (conv4_1): Conv2d(256, 512, kernel_size=(3, 3), stride=(1, 1), padding=(1, 1))
  (relu4_1): ReLU(inplace)
  (conv4_2): Conv2d(512, 512, kernel_size=(3, 3), stride=(1, 1), padding=(1, 1))
  (relu4_2): ReLU(inplace)
  (conv4_3): Conv2d(512, 512, kernel_size=(3, 3), stride=(1, 1), padding=(1, 1))
  (relu4_3): ReLU(inplace)
  (pool4): MaxPool2d(kernel_size=2, stride=2, padding=0, dilation=1, ceil_mode=True)
  (conv5_1): Conv2d(512, 512, kernel_size=(3, 3), stride=(1, 1), padding=(1, 1))
  (relu5_1): ReLU(inplace)
  (conv5_2): Conv2d(512, 512, kernel_size=(3, 3), stride=(1, 1), padding=(1, 1))
  (relu5_2): ReLU(inplace)
  (conv5_3): Conv2d(512, 512, kernel_size=(3, 3), stride=(1, 1), padding=(1, 1))
  (relu5_3): ReLU(inplace)
  (pool5): MaxPool2d(kernel_size=2, stride=2, padding=0, dilation=1, ceil_mode=True)
  (fc6): Conv2d(512, 4096, kernel_size=(7, 7), stride=(1, 1))
  (relu6): ReLU(inplace)
  (drop6): Dropout2d(p=0.5)
  (fc7): Conv2d(4096, 4096, kernel_size=(1, 1), stride=(1, 1))
  (relu7): ReLU(inplace)
  (drop7): Dropout2d(p=0.5)
  (score_fr): Conv2d(4096, 21, kernel_size=(1, 1), stride=(1, 1))
  (upscore): ConvTranspose2d(21, 21, kernel_size=(64, 64), stride=(32, 32), bias=False)
)
----
1 - Conv2d(3, 64, kernel_size=(3, 3), stride=(1, 1), padding=(100, 100))
----
2 - ReLU(inplace)
----
3 - Conv2d(64, 64, kernel_size=(3, 3), stride=(1, 1), padding=(1, 1))
----
4 - ReLU(inplace)
----
5 - MaxPool2d(kernel_size=2, stride=2, padding=0, dilation=1, ceil_mode=True)
----
6 - Conv2d(64, 128, kernel_size=(3, 3), stride=(1, 1), padding=(1, 1))
…
